{"format": "layers-model", "generatedBy": "keras v2.15.0", "convertedBy": "TensorFlow.js Converter v4.19.0", "modelTopology": {"keras_version": "2.15.0", "backend": "tensorflow", "model_config": {"class_name": "Functional", "config": {"name": "model_6", "trainable": true, "layers": [{"class_name": "InputLayer", "config": {"batch_input_shape": [null, null], "dtype": "float32", "sparse": false, "ragged": false, "name": "decoder-input"}, "name": "decoder-input", "inbound_nodes": []}, {"class_name": "Embedding", "config": {"name": "decoder-Embedding", "trainable": true, "dtype": "float32", "batch_input_shape": [null, null], "input_dim": 1769, "output_dim": 256, "embeddings_initializer": {"module": "keras.initializers", "class_name": "RandomUniform", "config": {"minval": -0.05, "maxval": 0.05, "seed": null}, "registered_name": null}, "embeddings_regularizer": null, "activity_regularizer": null, "embeddings_constraint": null, "mask_zero": false, "input_length": null}, "name": "decoder-Embedding", "inbound_nodes": [[["decoder-input", 0, 0, {}]]]}, {"class_name": "InputLayer", "config": {"batch_input_shape": [null, 256], "dtype": "float32", "sparse": false, "ragged": false, "name": "input_5"}, "name": "input_5", "inbound_nodes": []}, {"class_name": "InputLayer", "config": {"batch_input_shape": [null, 256], "dtype": "float32", "sparse": false, "ragged": false, "name": "input_6"}, "name": "input_6", "inbound_nodes": []}, {"class_name": "LSTM", "config": {"name": "decoder-lstm", "trainable": true, "dtype": "float32", "return_sequences": true, "return_state": true, "go_backwards": false, "stateful": false, "unroll": false, "time_major": false, "units": 256, "activation": "tanh", "recurrent_activation": "sigmoid", "use_bias": true, "kernel_initializer": {"module": "keras.initializers", "class_name": "GlorotUniform", "config": {"seed": null}, "registered_name": null}, "recurrent_initializer": {"module": "keras.initializers", "class_name": "Orthogonal", "config": {"gain": 1.0, "seed": null}, "registered_name": null}, "bias_initializer": {"module": "keras.initializers", "class_name": "Zeros", "config": {}, "registered_name": null}, "unit_forget_bias": true, "kernel_regularizer": null, "recurrent_regularizer": null, "bias_regularizer": null, "activity_regularizer": null, "kernel_constraint": null, "recurrent_constraint": null, "bias_constraint": null, "dropout": 0.2, "recurrent_dropout": 0.2, "implementation": 1}, "name": "decoder-lstm", "inbound_nodes": [[["decoder-Embedding", 0, 0, {}], ["input_5", 0, 0, {}], ["input_6", 0, 0, {}]]]}, {"class_name": "Dense", "config": {"name": "decoder-dense", "trainable": true, "dtype": "float32", "units": 1769, "activation": "softmax", "use_bias": true, "kernel_initializer": {"module": "keras.initializers", "class_name": "GlorotUniform", "config": {"seed": null}, "registered_name": null}, "bias_initializer": {"module": "keras.initializers", "class_name": "Zeros", "config": {}, "registered_name": null}, "kernel_regularizer": null, "bias_regularizer": null, "activity_regularizer": null, "kernel_constraint": null, "bias_constraint": null}, "name": "decoder-dense", "inbound_nodes": [[["decoder-lstm", 0, 0, {}]]]}], "input_layers": [["decoder-input", 0, 0], ["input_5", 0, 0], ["input_6", 0, 0]], "output_layers": [["decoder-dense", 0, 0], ["decoder-lstm", 0, 1], ["decoder-lstm", 0, 2]]}}}, "weightsManifest": [{"paths": ["group1-shard1of2.bin", "group1-shard2of2.bin"], "weights": [{"name": "decoder-Embedding/embeddings", "shape": [1769, 256], "dtype": "float32"}, {"name": "decoder-dense/kernel", "shape": [256, 1769], "dtype": "float32"}, {"name": "decoder-dense/bias", "shape": [1769], "dtype": "float32"}, {"name": "decoder-lstm/lstm_cell/kernel", "shape": [256, 1024], "dtype": "float32"}, {"name": "decoder-lstm/lstm_cell/recurrent_kernel", "shape": [256, 1024], "dtype": "float32"}, {"name": "decoder-lstm/lstm_cell/bias", "shape": [1024], "dtype": "float32"}]}]}